config/model.pt (torch, 99322 bytes, 6 tensors)

weight f4 [1433, 16]
00000000: 7a11 0d37 425a 1e36 57c1 ac38 b5e5 6d39
00000010: d1d6 2f37 89ed db38 09a9 1039 29f8 6238
00000020: d6fb c938 9a49 9e38 e952 8f39 a4eb 5d39
00000030: 32d4 4539 cce2 6139 a1ab b238 8a18 01b5
00000040: a0c0 6b37 f430 2135 35dc 3439 5df1 173a
00000050: 599b d737 1905 6239 3759 a239 afbc f238
00000060: c952 7b39 f76e 2d39 5151 213a 82fb fd39
00000070: 21b2 e539 709e 173a 14ab 4e39 db5e 94b6
00000080: 43fb be37 08e8 a034 32ed ab39 75ef 9b3a
00000090: adc0 8338 04bc e339 0630 1e3a f075 4e39
000000a0: 7cb3 ed39 5281 b039 25e7 963a 96f1 6f3a
000000b0: 61a5 6f3a 16aa 8c3a 5341 cc39 c633 c835
000000c0: e23d b537 57c5 88b6 23e5 043a 1529 e23a
000000d0: 7b0a 9838 30c7 1b3a 1205 633a 9666 a439
000000e0: de4f 213a 12b6 ce39 8132 ca3a 175f a63a
000000f0: ffac b13a 3062 be3a a31b f639 0b5e 8d35
00000100: 01ab 4338 90c1 a1b5 0d03 8b3a 9b2a 683b
00000110: d949 2d39 0de4 a13a 97fa f93a 93b5 203a
00000120: 7d5f b73a 5571 823a 52b2 613b 6ad2 313b
00000130: cce2 293b 0569 523b 6dd8 7e3a e9f3 c836
00000140: dcb5 bc36 fcb1 a736 256a 4c38 6d6a 4639
00000150: a32c 6737 25fd 6538 9bc6 cc38 76d3 cf37
00000160: c6ec 8b38 b058 8c38 72e6 2d39 a8f9 0639
00000170: 76f4 0839 31c2 2939 e8bf 7438 268f 6d36
00000180: e6b3 a734 6c77 0936 7cca 2339 52dc 0d3a
00000190: 8a0a d337 dc86 4839 b5b0 8839 009c d738
000001a0: 2ce8 6639 9e90 2b39 8af6 0a3a 943b d639
000001b0: 03d5 ea39 9259 f539 e552 3839 fc85 5cb5
000001c0: 9ce4 d436 c5a8 e436 d863 c238 50cf 9639
000001d0: d7d4 6037 9f8f d938 f6b7 1a39 7247 5d38
000001e0: 84f5 0239 5801 9d38 b3ac 8b39 da29 6439
000001f0: 8d60 7739 10e5 8839 cba5 a538 a9e1 b6b6
00000200: 79df 5637 de5e 2e35 b717 7d39 8d94 433a
00000210: 725e 1e38 98bb 9939 0567 ca39 1a19 2339
00000220: 86bf a639 e3f2 6339 109c 3a3a e3d2 193a
00000230: 32dd 193a 36a2 3b3a b0be 8f39 c7cc b136
00000240: 54c6 f935 3dfb 9135 d44c ba37 ad42 da38
00000250: 5d92 1fb6 3520 dc37 c693 5e38 aef3 8937
00000260: 2df9 3238 ccc6 e337 b2f0 da38 e20f 9938
00000270: 3508 8538 3821 bb38 b94d 0b38 0465 7d36
00000280: d2d9 88b6 9016 1e35 5acd 7f38 7dbb 7839
00000290: ee3f 0637 7155 4438 5c4d c438 3752 1e38
000002a0: 3b78 8f38 be7e 4f38 bb51 5139 510a 2039
000002b0: 7ee3 e638 7650 4639 2a06 9038 8856 0834
000002c0: a8b6 1cb4 50d2 8d34 313e 6138 d379 2d39
000002d0: 4ba9 de36 fad9 6c38 2d17 8b38 858a cf37
000002e0: 75e4 5638 7c0e 2738 ca44 0639 7784 d838
000002f0: dcf9 f938 88d7 fa38 b13c 2638 deac f335
00000300: 96ee ec36 0f55 1eb6 c46b 2b39 d109 f939
00000310: cb5c e337 87a5 4739 f1d2 7c39 aa0a 9d38
00000320: d04f 6139 6581 1039 957e fa39 e4af bf39
00000330: 1f19 af39 8a22 f539 fa1b 2c39 13b3 8636
00000340: c361 bf36 fb78 11b6 9025 f238 3e60 cc39
00000350: d6dc cc37 517c fe38 f0ff a539 0100 9438
00000360: 8ed8 1639 e2fc f638 f1a4 a939 2b49 9939
00000370: 8aaa a939 19b7 b039 94aa 0639 e879 3eb5
00000380: 3bf8 a435 f5e8 94b6 aaa1 6b38 6cbd 0a39
00000390: 87dc 5837 3898 7438 c2ef a938 241d fb37
000003a0: 8009 8438 698c 4a38 2954 2939 affd 0039
000003b0: d973 d538 b90a 1b39 ba95 7538 04a5 ef36
000003c0: 46e1 3f35 c6b1 c4b5 e1ab c138 44cf 8739
000003d0: 3352 0f37 c36f b438 6bb8 0f39 caf3 3838
000003e0: 3101 b138 d97f 8f38 a827 5939 fa34 3b39
000003f0: 3af9 6139 0038 4c39 9807 a638 1ee1 dc36
8.408324e-06 2.3596372e-06 8.2376115e-05 0.00022687654 1.0480829e-05 0.00010486978 0.0001379588 5.4113716e-05
9.631335e-05 7.5477365e-05 0.00027336858 0.00021163985 0.00018866433 0.0002154216 8.51967e-05 -4.8091954e-07
1.40519405e-05 6.004841e-07 0.00017248171 0.0005796159 2.5702337e-05 0.00021554939 0.00030965518 0.00011574604
0.00023968065 0.00016539903 0.00061537797 0.00048443308 0.00043811 0.0005783802 0.00019709422 -4.4217863e-06
2.2766768e-05 2.9971147e-07 0.00032792386 0.0011896925 6.2824554e-05 0.00043436897 0.0006034378 0.00019689626
0.0004533789 0.00033665687 0.0011512978 0.00091531256 0.000914177 0.0010731842 0.00038958582 1.4916229e-06
2.1605698e-05 -4.076089e-06 0.00050695444 0.0017254675 7.249877e-05 0.0005942462 0.00086601183 0.0003135695
0.0006153564 0.00039427035 0.0015426428 0.0012693134 0.0013555585 0.0014525112 0.00046941367 1.0532689e-06
4.6650883e-05 -1.2051769e-06 0.0010605768 0.0035425785 0.00016526076 0.001235129 0.0019071874 0.00061305723
0.001399025 0.0009951988 0.0034438563 0.0027133473 0.0025922535 0.0032106054 0.0009721581 5.9888594e-06
5.624008e-06 4.997708e-06 4.8736245e-05 0.00018922398 1.3779066e-05 5.4833614e-05 9.764471e-05 2.4774792e-05
6.672139e-05 6.6922395e-05 0.00016584413 0.0001287224 0.0001306104 0.00016189438 5.835286e-05 3.5399075e-06
3.1237067e-07 2.0484104e-06 0.00015620323 0.00054115534 2.5158068e-05 0.00019123725 0.00026071598 0.00010281056
0.00022021 0.00016361705 0.00053010194 0.0004086165 0.00044790664 0.00046796777 0.00017578488 -8.215136e-07
6.344706e-06 6.814577e-06 9.269238e-05 0.0002876469 1.3400996e-05 0.00010374118 0.00014755115 5.2757045e-05
0.00012489228 7.486594e-05 0.00026640817 0.00021759365 0.00023591724 0.00026110606 7.8986945e-05 -5.450293e-06
1.2807425e-05 6.49581e-07 0.00024136795 0.00074607955 3.7758095e-05 0.00029322202 0.00038605198 0.00015554242
0.00031804683 0.0002173889 0.0007118592 0.00058679114 0.00058694475 0.0007157655 0.0002741716 5.2988503e-06
1.8609667e-06 1.0876462e-06 2.2208704e-05 0.000104074694 -2.377804e-06 2.6241041e-05 5.306655e-05 1.6445145e-05
4.267057e-05 2.715308e-05 0.00010439883 7.298567e-05 6.343463e-05 8.923042e-05 3.3212567e-05 3.7758737e-06
-4.0784735e-06 5.889242e-07 6.0987986e-05 0.00023720968 8.001907e-06 4.6809615e-05 9.3604176e-05 3.7746704e-05
6.841166e-05 4.9470684e-05 0.0001996224 0.00015262632 0.00011009628 0.00018912725 6.867603e-05 1.2697467e-07
-1.4595082e-07 2.641632e-07 5.37021e-05 0.00016543949 6.635824e-06 5.646979e-05 6.632353e-05 2.4740826e-05
5.1234343e-05 3.9829392e-05 0.00012804862 0.00010324356 0.00011919785 0.00011961075 3.9634007e-05 1.8155222e-06
7.061123e-06 -2.3593345e-06 0.00016347977 0.00047500295 2.7103719e-05 0.00019039783 0.00024111175 7.48833e-05
0.00021487405 0.00013781113 0.00047778027 0.00036561408 0.00033397318 0.00046755775 0.0001641362 4.014358e-06
5.7036245e-06 -2.1677104e-06 0.00011546456 0.00038981618 2.442153e-05 0.000121348196 0.0003166194 7.057191e-05
0.00014385788 0.00011777297 0.00032357083 0.00029236948 0.00032361253 0.00033705754 0.00012842781 -7.095791e-07
1.2291197e-06 -4.4378635e-06 5.6178927e-05 0.0001323127 1.2925949e-05 5.8315898e-05 8.103206e-05 2.9935101e-05
6.29602e-05 4.829132e-05 0.00016148448 0.00012301536 0.0001017821 0.00014785946 5.8551996e-05 7.1419654e-06
7.148086e-07 -1.4654877e-06 9.234972e-05 0.00025903631 8.542603e-06 8.603886e-05 0.00013706244 4.4096065e-05
8.4402396e-05 6.842585e-05 0.00020709506 0.00017853445 0.00021550516 0.00019475818 7.916911e-05 6.582718e-06

bias f4 [16]
00000000: eb42 5e3c 448b 19ba f33c 8c3e 8bb8 053f
00000010: 87fc 403d 5ab6 a13e 7feb 843e f8e2 363e
00000020: 9c70 903e e16c 883e 575f aa3e 3cae cf3e
00000030: 9099 cf3e f15d 8c3e 71b5 973e 28cb 6cbd
0.013565759 -0.0005857239 0.2739025 0.52234715 0.04711583 0.31584436 0.2596092 0.17860019
0.28210914 0.26645568 0.33275864 0.40562618 0.40546846 0.27415422 0.29630616 -0.057810932

weight f4 [16, 16]
00000000: 57a2 863b 57b3 57bb b99a f9ba 04e4 f0ba
00000010: 6afe a2bb 7b72 53bb 76d2 9ebb dd4c 6639
00000020: 6ad6 a33b c662 6abb 7453 5c3b 1a24 f73a
00000030: 94a1 efba 02d6 10bb 6b95 91ba 4fbd 9e3b
00000040: 693c 10b6 f29c 0f35 3a0b d7b5 c326 7ab6
00000050: 8793 2535 fd0f 9cb6 842a f235 ae0d 64b6
00000060: c7f2 dbb5 5ec0 8835 57f8 7336 357f fd35
00000070: d0d6 c134 2ac7 cd36 abbb ac35 f8d5 0037
00000080: 5868 b23d c618 90bd 57ea 23bd f72a 22bd
00000090: 03b5 d5bd cac0 8abd 816e cebd 1b25 933b
000000a0: b636 d43d 6aba 99bd 9987 8f3d 68e6 223d
000000b0: ecb7 1ebd f0c8 3cbd 19e1 bdbc 617b d73d
000000c0: 4b75 ac3e e76a a5be f7b2 81be bf89 21be
000000d0: 2fa3 b3be 331c 9cbe 818c ddbd e77a 193e
000000e0: d70a ef3e f0da a4be f478 713e 0293 453e
000000f0: 32a9 94be db5c b8bd 8b6a 95be cc82 f03d
00000100: 5de1 6e3c 3e2a 3ebc 9b2c d9bb f5f9 d3bb
00000110: ef28 8fbc 2383 37bc 2024 89bc b4b3 443a
00000120: 0c31 8d3c 4538 49bc 12bb 3f3c 9247 d53b
00000130: 59b0 d1bb cf6d fabb 955f 7bbb 9cfd 8d3c
00000140: 1f06 cd3d 8fbb a3bd aa09 31bd 572c 2dbd
00000150: c132 f6bd eab5 9dbd 8eb6 edbd a0d7 a63b
00000160: de0a f43d 3017 b0bd ab42 a43d 9017 383d
00000170: 9019 29bd b313 50bd 8849 d1bc 37ee f73d
00000180: a840 573e 1307 35be c1af 0fbd 8573 80bc
00000190: 9772 82be 7487 bdbd 8e79 c4bd 0bc9 9f3d
000001a0: 0403 ba3c 62ac 77be dbd1 433e a4d2 30bc
000001b0: 34b1 e4bd abf6 2dbd d524 a1bd fe29 703e
000001c0: 46a7 613d 2a50 34bd 3cbd ccbc e7e1 cabc
000001d0: ad40 86bd eb0e 2ebd 8a01 81bd 10ee 3b3b
000001e0: 0d74 863d e7ad 44bd 72e1 323d 2c59 cf3c
000001f0: 1cfc cebc 0093 fbbc 80ea 6cbc d950 873d
00000200: 60c9 b63d 8705 babd 0eea 26bd c0c2 24bd
00000210: 5fd3 3abe d868 a7bd dc0d 20be fa0c 963b
00000220: 4daf fe3d d1ce babd 7c6b 9f3d 00b0 263d
00000230: d94a 21bd 63cc 43bd 6420 bfbc 5d55 163e
00000240: b869 a73d 5df0 88bd 9cf8 25bd 5d22 19bd
00000250: 2478 cbbd e079 83bd 57f8 c4bd 87d5 8c3b
00000260: 491f c93d 1d90 8ebd eee9 873d e3b0 193d
00000270: b359 16bd 5bf6 30bd 3e89 b6bc f9f4 cb3d
00000280: addd d63e 5bb2 1dbe 956d ffbc 9c4c a7bd
00000290: 8ef3 a4be 0de9 98be 180e 6abe 8d10 b23b
000002a0: 4fb6 663e 2c85 87be b890 3a3e 2507 ab3d
000002b0: 708e d4bd 70ed 49be 0213 84be 8b7e df3e
000002c0: a22a 503d ef0f 97be f6dc ea3c a234 35be
000002d0: c472 39be 0b5f 3bbe 8e54 57be 72e8 a53e
000002e0: 3ae2 e53e 5df5 92be 508a 623e 5080 2e3e
000002f0: f8d1 88be 1be4 62be f7e7 01bd d57d d03d
00000300: 8cd5 9e3e bab5 9dbe 4081 2dbe e4d4 943c
00000310: aa1a 1ebe 421d aabe c9d8 4fbe 82a2 e03d
00000320: 83b8 0a3e c669 05be 6ba9 493e 45a3 b4bb
00000330: bf99 8fbe ecbc afbd 4d4d ecbc 4b1f aa3e
00000340: 3492 913e 9daa 20be b65b 7abd a415 cebd
00000350: 6b52 d9be da23 80be 93d6 4ebe fa16 2f3e
00000360: 88a2 cb3e 272a 72be 0958 ed3d 9026 e53d
00000370: 6f88 31bd 58cf 56bd d49e 58be f75a 5c3e
00000380: cab7 bd3d 8f29 96bd 8388 2cbd 22bd 27bd
00000390: e6cf e3bd ed21 92bd 4869 dbbd 0e9d 9c3b
000003a0: 7d9f e23d 5cf2 9fbd 68ab 973d 6115 273d
000003b0: d6b0 27bd 02e6 47bd f872 c0bc f9f9 e53d
000003c0: 6a0f 8fb9 6d9d 27b6 5477 d035 5768 f739
000003d0: 94a9 65bc 3b22 5eb7 720c ccbc f0d0 74bc
000003e0: 838e c73c bd91 9eb6 1c4a 1db7 9585 87b7
000003f0: 6641 94b8 f4ed b6b7 6c1d 7f3c ea7f dfbb
0.004108708 -0.0032913291 -0.0019043303 -0.0018378501 -0.004974176 -0.003226428 -0.0048468662 0.00021963143
0.0049999254 -0.003576444 0.0033619078 0.0018855364 -0.0018282407 -0.0022100215 -0.0011107152 0.0048443447
-2.1492835e-06 5.3500037e-07 -1.6022016e-06 -3.7275465e-06 6.168197e-07 -4.6510236e-06 1.8042779e-06 -3.398261e-06
-1.6387429e-06 1.0188776e-06 3.6354375e-06 1.8886991e-06 3.6105348e-07 6.132662e-06 1.2869617e-06 7.679213e-06
0.08711308 -0.07035975 -0.040018406 -0.039591756 -0.10434916 -0.06775053 -0.10079671 0.0044905073
0.10361998 -0.07506259 0.07008285 0.039770514 -0.03874962 -0.046090066 -0.023178624 0.105215795
0.33683237 -0.32308123 -0.25331852 -0.15775202 -0.35085437 -0.30490264 -0.108178146 0.1498829
0.46687958 -0.32198286 0.23581296 0.1929436 -0.29035336 -0.09002086 -0.29182848 0.117436975
0.014580098 -0.011606751 -0.006627632 -0.006469006 -0.017475573 -0.011200699 -0.016740859 0.00075035845
0.017235301 -0.012281482 0.011702316 0.006508776 -0.006399196 -0.0076424847 -0.0038356532 0.017332844
0.10010933 -0.07994758 -0.043222107 -0.042278614 -0.12021399 -0.07700713 -0.11607085 0.0050916225
0.11916135 -0.08598173 0.080205284 0.044944346 -0.041284144 -0.050800037 -0.025547758 0.12105983
0.21020758 -0.1767848 -0.03507972 -0.015680084 -0.2547805 -0.09254351 -0.09593497 0.07802018
0.022706516 -0.24186853 0.19123022 -0.010792408 -0.11166611 -0.04247157 -0.07868353 0.23453519
0.055091165 -0.044021763 -0.024992578 -0.024765922 -0.06555305 -0.042494696 -0.06299122 0.0028675832
0.06565104 -0.04801741 0.043672033 0.025311075 -0.0252667 -0.030709743 -0.014460206 0.06607217
0.08925128 -0.090830855 -0.040750556 -0.04022479 -0.18244694 -0.08174294 -0.15630287 0.0045791836
0.1243578 -0.09121478 0.07784173 0.04069519 -0.03937802 -0.04780234 -0.023330875 0.14681001
0.08174461 -0.06686471 -0.040520296 -0.037386287 -0.099350244 -0.0641973 -0.096176796 0.0042979154
0.0982042 -0.06961081 0.066364154 0.037522208 -0.036706638 -0.043203693 -0.022282239 0.09958834
0.41966 -0.15400068 -0.031180182 -0.08168909 -0.32217067 -0.29865304 -0.22856939 0.005434102
0.22530483 -0.2646879 0.18219268 0.08350972 -0.1037873 -0.19719481 -0.25795752 0.43651232
0.050821908 -0.29504344 0.028669816 -0.17695859 -0.18110186 -0.18297975 -0.21028349 0.32403904
0.4489916 -0.28702822 0.22123075 0.17041135 -0.26722693 -0.22157328 -0.03171536 0.101802506
0.31022298 -0.3080271 -0.16943836 0.01816792 -0.15439859 -0.33225447 -0.2029754 0.10968496
0.13546948 -0.1302863 0.19693534 -0.0055126273 -0.28046986 -0.08580956 -0.028845454 0.33227
0.28431857 -0.15690084 -0.06112262 -0.10062721 -0.42445692 -0.25027353 -0.20199041 0.17098609
0.3977244 -0.23648892 0.11589057 0.11188996 -0.043343004 -0.052443832 -0.21154338 0.21519075
0.092635706 -0.073321454 -0.042122375 -0.040951855 -0.11123638 -0.07135377 -0.1071344 0.0047794646
0.11065576 -0.07809898 0.0740574 0.040791873 -0.04094013 -0.048803337 -0.023492321 0.11229319
-0.0002728657 -2.4976573e-06 1.5531937e-06 0.0004718925 -0.014017481 -1.3240201e-05 -0.024908278 -0.014942393
0.024359947 -4.725733e-06 -9.375184e-06 -1.6155458e-05 -7.069371e-05 -2.1806896e-05 0.01557098 -0.0068206685

bias f4 [16]
00000000: 82e6 943e 4f14 ecbe cb6a 70be 7e3f 43be
00000010: dde0 c9be ad7d fcbe f03f bdbe a294 2cbd
00000020: 7c44 a23e 4d4a d9be 9b87 ea3e 3d2c 093e
00000030: 0273 683d 1ec6 99be e360 4ebd daa8 de3e
0.29082114 -0.46109244 -0.23478238 -0.19067189 -0.3942937 -0.49314633 -0.36962843 -0.042133935
0.31692874 -0.424395 0.45806584 0.13395782 0.056750305 -0.30033964 -0.050385367 0.434882

weight f4 [2, 16]
00000000: e066 a13e 670e 8dbe 3ca4 a5bd e29f bdbc
00000010: 62c3 babe cff2 febe e90e ddbe 57a5 96bc
00000020: 6ccd e93e 72a8 80be 7dee 183e fc93 a33e
00000030: 50d7 0cbe acc5 0cbe 0fed ddbd b9ef ca3e
00000040: 7666 cdbe 740a 9a3e 4f19 7a3e 4709 993e
00000050: 5f85 fd3e 4a3e 683d 67db cb3e 33f5 63bd
00000060: 0763 cbbe 2e6f ba3e 1776 d9be 6485 8dbb
00000070: 6405 373e 86be 753e 4593 a43d f2bc f0be
0.315238 -0.2755005 -0.08087966 -0.023147527 -0.3647719 -0.49794623 -0.43175438 -0.018389387
0.45664537 -0.25128514 0.14934726 0.3194884 -0.1375401 -0.13747281 -0.10836231 0.3963602
-0.40117234 0.300861 0.24423717 0.2988989 0.49515817 0.05670003 0.39815828 -0.055653762
-0.3972399 0.36412948 -0.42472908 -0.00431888 0.1787315 0.2399846 0.08035902 -0.47019154

bias f4 [2]
00000000: d1cb 843e 9ef8 00be
0.2593675 -0.1259484
